…
Over 10, Under 200 : 25475
Over 200, Under 400 : 1121
Over 400 : 180

hbase-AST
updated_train_data

Sentence length Average : 59

Under 10 : 0
Over 10, Under 200 : 22976
Over 200, Under 400 : 1162
Over 400 : 0


Test_zero:  1874
Train_zero:  16897
zero:  18771
Test_one:  764
Train_one:  7241
one:  8005

Count model parameter.
Get a short summary of each layer dimensions and parameters.
_________________________________________________________________
Layer (type)                 Output Shape              Param #   
=================================================================
input_1 (InputLayer)         (None, 80000)             0         
_________________________________________________________________
masking_1 (Masking)          (None, 80000)             0         
_________________________________________________________________
dense_1 (Dense)              (None, 1024)              81921024  
_________________________________________________________________
dropout_1 (Dropout)          (None, 1024)              0         
_________________________________________________________________
dense_2 (Dense)              (None, 1024)              1049600   
_________________________________________________________________
dropout_2 (Dropout)          (None, 1024)              0         
_________________________________________________________________
dense_3 (Dense)              (None, 2)                 2050      
=================================================================
Total params: 82,972,674
Trainable params: 82,972,674
Non-trainable params: 0
_________________________________________________________________
1

Epoch 1/1

   64/14483 [..............................] - ETA: 20:38 - loss: 0.6772 - acc: 0.5625
  128/14483 [..............................] - ETA: 11:41 - loss: 3.5567 - acc: 0.5469
…
