…
Over 10, Under 200 : 37669
Over 200, Under 400 : 2147
Over 400 : 489

hbase-code
updated_train_data

Sentence length Average : 52

Under 10 : 0
Over 10, Under 200 : 27853
Over 200, Under 400 : 1027
Over 400 : 0


Test_zero:  2410
Train_zero:  21283
zero:  23693
Test_one:  804
Train_one:  7597
one:  8401

Count model parameter.
Get a short summary of each layer dimensions and parameters.
_________________________________________________________________
Layer (type)                 Output Shape              Param #   
=================================================================
input_1 (InputLayer)         (None, 80000)             0         
_________________________________________________________________
masking_1 (Masking)          (None, 80000)             0         
_________________________________________________________________
dense_1 (Dense)              (None, 64)                5120064   
_________________________________________________________________
dropout_1 (Dropout)          (None, 64)                0         
_________________________________________________________________
dense_2 (Dense)              (None, 64)                4160      
_________________________________________________________________
dropout_2 (Dropout)          (None, 64)                0         
_________________________________________________________________
dense_3 (Dense)              (None, 2)                 130       
=================================================================
Total params: 5,124,354
Trainable params: 5,124,354
Non-trainable params: 0
_________________________________________________________________
1

Epoch 1/1

   64/15195 [..............................] - ETA: 4:24 - loss: 0.7155 - acc: 0.5000
  128/15195 [..............................] - ETA: 2:20 - loss: 1.8003 - acc: 0.5312
…
