…
Over 10, Under 200 : 35282
Over 200, Under 400 : 3981
Over 400 : 1973

hbase-CAST
updated_train_data

Sentence length Average : 83

Under 10 : 0
Over 10, Under 200 : 31184
Over 200, Under 400 : 4247
Over 400 : 0


Test_zero:  3082
Train_zero:  27814
zero:  30896
Test_one:  805
Train_one:  7617
one:  8422

Count model parameter.
Get a short summary of each layer dimensions and parameters.
_________________________________________________________________
Layer (type)                 Output Shape              Param #   
=================================================================
input_1 (InputLayer)         (None, 80000)             0         
_________________________________________________________________
masking_1 (Masking)          (None, 80000)             0         
_________________________________________________________________
dense_1 (Dense)              (None, 1024)              81921024  
_________________________________________________________________
dropout_1 (Dropout)          (None, 1024)              0         
_________________________________________________________________
dense_2 (Dense)              (None, 1024)              1049600   
_________________________________________________________________
dropout_2 (Dropout)          (None, 1024)              0         
_________________________________________________________________
dense_3 (Dense)              (None, 2)                 2050      
=================================================================
Total params: 82,972,674
Trainable params: 82,972,674
Non-trainable params: 0
_________________________________________________________________
1

Epoch 1/1

   64/15235 [..............................] - ETA: 17:21 - loss: 0.7423 - acc: 0.4219
  128/15235 [..............................] - ETA: 10:01 - loss: 4.1488 - acc: 0.4766
…
