…
Over 10, Under 200 : 25475
Over 200, Under 400 : 1121
Over 400 : 180

hbase-AST
updated_train_data

Sentence length Average : 59

Under 10 : 0
Over 10, Under 200 : 22932
Over 200, Under 400 : 1156
Over 400 : 0


Test_zero:  1866
Train_zero:  16848
zero:  18714
Test_one:  764
Train_one:  7240
one:  8004

Count model parameter.
Get a short summary of each layer dimensions and parameters.
_________________________________________________________________
Layer (type)                 Output Shape              Param #   
=================================================================
input_1 (InputLayer)         (None, 80000)             0         
_________________________________________________________________
masking_1 (Masking)          (None, 80000)             0         
_________________________________________________________________
dense_1 (Dense)              (None, 256)               20480256  
_________________________________________________________________
dropout_1 (Dropout)          (None, 256)               0         
_________________________________________________________________
dense_2 (Dense)              (None, 256)               65792     
_________________________________________________________________
dropout_2 (Dropout)          (None, 256)               0         
_________________________________________________________________
dense_3 (Dense)              (None, 2)                 514       
=================================================================
Total params: 20,546,562
Trainable params: 20,546,562
Non-trainable params: 0
_________________________________________________________________
1

Epoch 1/1

   64/14481 [..............................] - ETA: 3:05 - loss: 0.7058 - acc: 0.4062
  128/14481 [..............................] - ETA: 1:48 - loss: 3.9477 - acc: 0.4375
…
