…
Over 10, Under 200 : 37669
Over 200, Under 400 : 2147
Over 400 : 489

hbase-code
updated_train_data

Sentence length Average : 52

Under 10 : 0
Over 10, Under 200 : 27853
Over 200, Under 400 : 1027
Over 400 : 0


Test_zero:  2410
Train_zero:  21283
zero:  23693
Test_one:  804
Train_one:  7597
one:  8401

Count model parameter.
Get a short summary of each layer dimensions and parameters.
_________________________________________________________________
Layer (type)                 Output Shape              Param #   
=================================================================
input_1 (InputLayer)         (None, 200)               0         
_________________________________________________________________
masking_1 (Masking)          (None, 200)               0         
_________________________________________________________________
dense_1 (Dense)              (None, 32)                6432      
_________________________________________________________________
dropout_1 (Dropout)          (None, 32)                0         
_________________________________________________________________
dense_2 (Dense)              (None, 32)                1056      
_________________________________________________________________
dropout_2 (Dropout)          (None, 32)                0         
_________________________________________________________________
dense_3 (Dense)              (None, 2)                 66        
=================================================================
Total params: 7,554
Trainable params: 7,554
Non-trainable params: 0
_________________________________________________________________
1

Epoch 1/1

   64/15195 [..............................] - ETA: 1:23 - loss: 6.3776 - acc: 0.5156
 1536/15195 [==>...........................] - ETA: 3s - loss: 3.6823 - acc: 0.5293  
 3136/15195 [=====>........................] - ETA: 1s - loss: 2.6884 - acc: 0.5599
…
