…
Over 10, Under 200 : 37669
Over 200, Under 400 : 2147
Over 400 : 489

hbase-code
updated_train_data

Sentence length Average : 56

Under 10 : 0
Over 10, Under 200 : 29835
Over 200, Under 400 : 1382
Over 400 : 0


Test_zero:  2643
Train_zero:  23540
zero:  26183
Test_one:  812
Train_one:  7677
one:  8489

Count model parameter.
Get a short summary of each layer dimensions and parameters.
_________________________________________________________________
Layer (type)                 Output Shape              Param #   
=================================================================
input_1 (InputLayer)         (None, 80000)             0         
_________________________________________________________________
masking_1 (Masking)          (None, 80000)             0         
_________________________________________________________________
dense_1 (Dense)              (None, 32)                2560032   
_________________________________________________________________
dropout_1 (Dropout)          (None, 32)                0         
_________________________________________________________________
dense_2 (Dense)              (None, 32)                1056      
_________________________________________________________________
dropout_2 (Dropout)          (None, 32)                0         
_________________________________________________________________
dense_3 (Dense)              (None, 2)                 66        
=================================================================
Total params: 2,561,154
Trainable params: 2,561,154
Non-trainable params: 0
_________________________________________________________________
1

Epoch 1/1

   64/15355 [..............................] - ETA: 2:07 - loss: 0.6931 - acc: 0.5000
  128/15355 [..............................] - ETA: 1:16 - loss: 1.2926 - acc: 0.5703
…
