…
Over 10, Under 200 : 35282
Over 200, Under 400 : 3981
Over 400 : 1973

hbase-CAST
updated_train_data

Sentence length Average : 74

Under 10 : 0
Over 10, Under 200 : 30897
Over 200, Under 400 : 3419
Over 400 : 0


Test_zero:  2957
Train_zero:  26756
zero:  29713
Test_one:  799
Train_one:  7560
one:  8359

Count model parameter.
Get a short summary of each layer dimensions and parameters.
_________________________________________________________________
Layer (type)                 Output Shape              Param #   
=================================================================
input_1 (InputLayer)         (None, 200)               0         
_________________________________________________________________
masking_1 (Masking)          (None, 200)               0         
_________________________________________________________________
dense_1 (Dense)              (None, 1024)              205824    
_________________________________________________________________
dropout_1 (Dropout)          (None, 1024)              0         
_________________________________________________________________
dense_2 (Dense)              (None, 1024)              1049600   
_________________________________________________________________
dropout_2 (Dropout)          (None, 1024)              0         
_________________________________________________________________
dense_3 (Dense)              (None, 2)                 2050      
=================================================================
Total params: 1,257,474
Trainable params: 1,257,474
Non-trainable params: 0
_________________________________________________________________
1

Epoch 1/1

   64/15121 [..............................] - ETA: 1:26 - loss: 3.2650 - acc: 0.5000
  192/15121 [..............................] - ETA: 33s - loss: 6.1252 - acc: 0.5208 
…
