…
Over 10, Under 200 : 25475
Over 200, Under 400 : 1121
Over 400 : 180

hbase-AST
updated_train_data

Sentence length Average : 59

Under 10 : 0
Over 10, Under 200 : 22976
Over 200, Under 400 : 1162
Over 400 : 0


Test_zero:  1874
Train_zero:  16897
zero:  18771
Test_one:  764
Train_one:  7241
one:  8005

Count model parameter.
Get a short summary of each layer dimensions and parameters.
_________________________________________________________________
Layer (type)                 Output Shape              Param #   
=================================================================
input_1 (InputLayer)         (None, 80000)             0         
_________________________________________________________________
masking_1 (Masking)          (None, 80000)             0         
_________________________________________________________________
dense_1 (Dense)              (None, 32)                2560032   
_________________________________________________________________
dropout_1 (Dropout)          (None, 32)                0         
_________________________________________________________________
dense_2 (Dense)              (None, 32)                1056      
_________________________________________________________________
dropout_2 (Dropout)          (None, 32)                0         
_________________________________________________________________
dense_3 (Dense)              (None, 2)                 66        
=================================================================
Total params: 2,561,154
Trainable params: 2,561,154
Non-trainable params: 0
_________________________________________________________________
1

Epoch 1/1

   64/14483 [..............................] - ETA: 1:53 - loss: 0.6710 - acc: 0.5781
  128/14483 [..............................] - ETA: 1:02 - loss: 1.7236 - acc: 0.5391
…
