…
Over 10, Under 200 : 37669
Over 200, Under 400 : 2147
Over 400 : 489

hbase-code
updated_train_data

Sentence length Average : 50

Under 10 : 0
Over 10, Under 200 : 27203
Over 200, Under 400 : 820
Over 400 : 0


Test_zero:  2300
Train_zero:  20480
zero:  22780
Test_one:  797
Train_one:  7543
one:  8340

Count model parameter.
Get a short summary of each layer dimensions and parameters.
_________________________________________________________________
Layer (type)                 Output Shape              Param #   
=================================================================
input_1 (InputLayer)         (None, 200)               0         
_________________________________________________________________
masking_1 (Masking)          (None, 200)               0         
_________________________________________________________________
dense_1 (Dense)              (None, 256)               51456     
_________________________________________________________________
dropout_1 (Dropout)          (None, 256)               0         
_________________________________________________________________
dense_2 (Dense)              (None, 256)               65792     
_________________________________________________________________
dropout_2 (Dropout)          (None, 256)               0         
_________________________________________________________________
dense_3 (Dense)              (None, 2)                 514       
=================================================================
Total params: 117,762
Trainable params: 117,762
Non-trainable params: 0
_________________________________________________________________
1

Epoch 1/1

   64/15087 [..............................] - ETA: 1:23 - loss: 0.7026 - acc: 0.3750
  960/15087 [>.............................] - ETA: 5s - loss: 0.6897 - acc: 0.5552  
 1728/15087 [==>...........................] - ETA: 3s - loss: 0.6737 - acc: 0.5758
…
