…
Over 10, Under 200 : 37669
Over 200, Under 400 : 2147
Over 400 : 489

hbase-code
updated_train_data

Sentence length Average : 50

Under 10 : 0
Over 10, Under 200 : 27203
Over 200, Under 400 : 820
Over 400 : 0


Test_zero:  2300
Train_zero:  20480
zero:  22780
Test_one:  797
Train_one:  7543
one:  8340

Count model parameter.
Get a short summary of each layer dimensions and parameters.
_________________________________________________________________
Layer (type)                 Output Shape              Param #   
=================================================================
input_1 (InputLayer)         (None, 80000)             0         
_________________________________________________________________
masking_1 (Masking)          (None, 80000)             0         
_________________________________________________________________
dense_1 (Dense)              (None, 64)                5120064   
_________________________________________________________________
dropout_1 (Dropout)          (None, 64)                0         
_________________________________________________________________
dense_2 (Dense)              (None, 64)                4160      
_________________________________________________________________
dropout_2 (Dropout)          (None, 64)                0         
_________________________________________________________________
dense_3 (Dense)              (None, 2)                 130       
=================================================================
Total params: 5,124,354
Trainable params: 5,124,354
Non-trainable params: 0
_________________________________________________________________
1

Epoch 1/1

   64/15087 [..............................] - ETA: 4:33 - loss: 0.6729 - acc: 0.4844
  128/15087 [..............................] - ETA: 2:30 - loss: 1.9985 - acc: 0.5156
…
