…
Over 10, Under 200 : 37669
Over 200, Under 400 : 2147
Over 400 : 489

hbase-code
updated_train_data

Sentence length Average : 62

Under 10 : 0
Over 10, Under 200 : 32523
Over 200, Under 400 : 2158
Over 400 : 0


Test_zero:  3007
Train_zero:  26923
zero:  29930
Test_one:  821
Train_one:  7758
one:  8579

Count model parameter.
Get a short summary of each layer dimensions and parameters.
_________________________________________________________________
Layer (type)                 Output Shape              Param #   
=================================================================
input_1 (InputLayer)         (None, 80000)             0         
_________________________________________________________________
masking_1 (Masking)          (None, 80000)             0         
_________________________________________________________________
dense_1 (Dense)              (None, 1024)              81921024  
_________________________________________________________________
dropout_1 (Dropout)          (None, 1024)              0         
_________________________________________________________________
dense_2 (Dense)              (None, 1024)              1049600   
_________________________________________________________________
dropout_2 (Dropout)          (None, 1024)              0         
_________________________________________________________________
dense_3 (Dense)              (None, 2)                 2050      
=================================================================
Total params: 82,972,674
Trainable params: 82,972,674
Non-trainable params: 0
_________________________________________________________________
1

Epoch 1/1

   64/15517 [..............................] - ETA: 22:14 - loss: 0.6567 - acc: 0.5469
  128/15517 [..............................] - ETA: 12:46 - loss: 3.6459 - acc: 0.4844
…
