…
Sentence length Average : 106

Under 10 : 0
Over 10, Under 200 : 20041
Over 200, Under 400 : 3669
Over 400 : 0


Test_zero:  1830
Train_zero:  16514
zero:  18344
Test_one:  762
Train_one:  7196
one:  7958
Count model parameter.
Get a short summary of each layer dimensions and parameters.
__________________________________________________________________________________________________
Layer (type)                    Output Shape         Param #     Connected to                     
==================================================================================================
input_1 (InputLayer)            (None, 400, 200)     0                                            
__________________________________________________________________________________________________
input_2 (InputLayer)            (None, 400, 200)     0                                            
__________________________________________________________________________________________________
masking_1 (Masking)             (None, 400, 200)     0           input_1[0][0]                    
__________________________________________________________________________________________________
masking_2 (Masking)             (None, 400, 200)     0           input_2[0][0]                    
__________________________________________________________________________________________________
input_3 (InputLayer)            (None, 400, 200)     0                                            
__________________________________________________________________________________________________
forwards_1 (LSTM)               (None, 64)           67840       masking_1[0][0]                  
__________________________________________________________________________________________________
backwords_1 (LSTM)              (None, 64)           67840       masking_1[0][0]                  
__________________________________________________________________________________________________
forwards_2 (LSTM)               (None, 64)           67840       masking_2[0][0]                  
__________________________________________________________________________________________________
backwards_2 (LSTM)              (None, 64)           67840       masking_2[0][0]                  
__________________________________________________________________________________________________
masking_3 (Masking)             (None, 400, 200)     0           input_3[0][0]                    
__________________________________________________________________________________________________
after_dp_forward_1 (Dropout)    (None, 64)           0           forwards_1[0][0]                 
__________________________________________________________________________________________________
after_dp_backward_1 (Dropout)   (None, 64)           0           backwords_1[0][0]                
__________________________________________________________________________________________________
after_dp_forward_2 (Dropout)    (None, 64)           0           forwards_2[0][0]                 
__________________________________________________________________________________________________
after_dp_backward_2 (Dropout)   (None, 64)           0           backwards_2[0][0]                
__________________________________________________________________________________________________
forwards_3 (LSTM)               (None, 64)           67840       masking_3[0][0]                  
__________________________________________________________________________________________________
backwards_3 (LSTM)              (None, 64)           67840       masking_3[0][0]                  
__________________________________________________________________________________________________
concatenate_1 (Concatenate)     (None, 128)          0           after_dp_forward_1[0][0]         
                                                                 after_dp_backward_1[0][0]        
__________________________________________________________________________________________________
concatenate_2 (Concatenate)     (None, 128)          0           after_dp_forward_2[0][0]         
                                                                 after_dp_backward_2[0][0]        
__________________________________________________________________________________________________
after_dp_forward_3 (Dropout)    (None, 64)           0           forwards_3[0][0]                 
__________________________________________________________________________________________________
after_dp_backward_3 (Dropout)   (None, 64)           0           backwards_3[0][0]                
__________________________________________________________________________________________________
after_dp_1 (Dropout)            (None, 128)          0           concatenate_1[0][0]              
__________________________________________________________________________________________________
after_dp_2 (Dropout)            (None, 128)          0           concatenate_2[0][0]              
__________________________________________________________________________________________________
concatenate_3 (Concatenate)     (None, 128)          0           after_dp_forward_3[0][0]         
                                                                 after_dp_backward_3[0][0]        
__________________________________________________________________________________________________
concatenate_4 (Concatenate)     (None, 256)          0           after_dp_1[0][0]                 
                                                                 after_dp_2[0][0]                 
__________________________________________________________________________________________________
after_dp_3 (Dropout)            (None, 128)          0           concatenate_3[0][0]              
__________________________________________________________________________________________________
concatenate_5 (Concatenate)     (None, 384)          0           concatenate_4[0][0]              
                                                                 after_dp_3[0][0]                 
__________________________________________________________________________________________________
dense_1 (Dense)                 (None, 256)          98560       concatenate_5[0][0]              
__________________________________________________________________________________________________
dense_2 (Dense)                 (None, 128)          32896       dense_1[0][0]                    
__________________________________________________________________________________________________
dense_3 (Dense)                 (None, 64)           8256        dense_2[0][0]                    
__________________________________________________________________________________________________
output (Dense)                  (None, 2)            130         dense_3[0][0]                    
==================================================================================================
Total params: 546,882
Trainable params: 546,882
Non-trainable params: 0
__________________________________________________________________________________________________
1

Epoch 1/1

   64/14393 [..............................] - ETA: 22:11 - loss: 0.7441 - acc: 0.4531
…
