…
Over 10, Under 200 : 35282
Over 200, Under 400 : 3981
Over 400 : 1973

hbase-CAST
updated_train_data

Sentence length Average : 74

Under 10 : 0
Over 10, Under 200 : 30897
Over 200, Under 400 : 3419
Over 400 : 0


Test_zero:  2957
Train_zero:  26756
zero:  29713
Test_one:  799
Train_one:  7560
one:  8359

Count model parameter.
Get a short summary of each layer dimensions and parameters.
_________________________________________________________________
Layer (type)                 Output Shape              Param #   
=================================================================
input_1 (InputLayer)         (None, 80000)             0         
_________________________________________________________________
masking_1 (Masking)          (None, 80000)             0         
_________________________________________________________________
dense_1 (Dense)              (None, 256)               20480256  
_________________________________________________________________
dropout_1 (Dropout)          (None, 256)               0         
_________________________________________________________________
dense_2 (Dense)              (None, 256)               65792     
_________________________________________________________________
dropout_2 (Dropout)          (None, 256)               0         
_________________________________________________________________
dense_3 (Dense)              (None, 2)                 514       
=================================================================
Total params: 20,546,562
Trainable params: 20,546,562
Non-trainable params: 0
_________________________________________________________________
1

Epoch 1/1

   64/15121 [..............................] - ETA: 3:01 - loss: 0.6616 - acc: 0.5469
  128/15121 [..............................] - ETA: 1:47 - loss: 1.7847 - acc: 0.6250
…
