…
Over 10, Under 200 : 35282
Over 200, Under 400 : 3981
Over 400 : 1973

hbase-CAST
updated_train_data

Sentence length Average : 90

Under 10 : 0
Over 10, Under 200 : 31581
Over 200, Under 400 : 5169
Over 400 : 0


Test_zero:  3235
Train_zero:  29064
zero:  32299
Test_one:  811
Train_one:  7686
one:  8497

Count model parameter.
Get a short summary of each layer dimensions and parameters.
_________________________________________________________________
Layer (type)                 Output Shape              Param #   
=================================================================
input_1 (InputLayer)         (None, 80000)             0         
_________________________________________________________________
masking_1 (Masking)          (None, 80000)             0         
_________________________________________________________________
dense_1 (Dense)              (None, 1024)              81921024  
_________________________________________________________________
dropout_1 (Dropout)          (None, 1024)              0         
_________________________________________________________________
dense_2 (Dense)              (None, 1024)              1049600   
_________________________________________________________________
dropout_2 (Dropout)          (None, 1024)              0         
_________________________________________________________________
dense_3 (Dense)              (None, 2)                 2050      
=================================================================
Total params: 82,972,674
Trainable params: 82,972,674
Non-trainable params: 0
_________________________________________________________________
1

Epoch 1/1

   64/15373 [..............................] - ETA: 11:31 - loss: 0.6963 - acc: 0.5000
  128/15373 [..............................] - ETA: 7:05 - loss: 4.5850 - acc: 0.4844 
…
