…
Over 10, Under 200 : 37669
Over 200, Under 400 : 2147
Over 400 : 489

hbase-code
updated_train_data

Sentence length Average : 56

Under 10 : 0
Over 10, Under 200 : 29835
Over 200, Under 400 : 1382
Over 400 : 0


Test_zero:  2643
Train_zero:  23540
zero:  26183
Test_one:  812
Train_one:  7677
one:  8489

Count model parameter.
Get a short summary of each layer dimensions and parameters.
_________________________________________________________________
Layer (type)                 Output Shape              Param #   
=================================================================
input_1 (InputLayer)         (None, 200)               0         
_________________________________________________________________
masking_1 (Masking)          (None, 200)               0         
_________________________________________________________________
dense_1 (Dense)              (None, 32)                6432      
_________________________________________________________________
dropout_1 (Dropout)          (None, 32)                0         
_________________________________________________________________
dense_2 (Dense)              (None, 32)                1056      
_________________________________________________________________
dropout_2 (Dropout)          (None, 32)                0         
_________________________________________________________________
dense_3 (Dense)              (None, 2)                 66        
=================================================================
Total params: 7,554
Trainable params: 7,554
Non-trainable params: 0
_________________________________________________________________
1

Epoch 1/1

   64/15355 [..............................] - ETA: 1:23 - loss: 4.3150 - acc: 0.4531
 1600/15355 [==>...........................] - ETA: 3s - loss: 3.8121 - acc: 0.5112  
 3072/15355 [=====>........................] - ETA: 1s - loss: 3.0547 - acc: 0.5609
…
