…
Over 10, Under 200 : 35282
Over 200, Under 400 : 3981
Over 400 : 1973

hbase-CAST
updated_train_data

Sentence length Average : 77

Under 10 : 0
Over 10, Under 200 : 30861
Over 200, Under 400 : 3677
Over 400 : 0


Test_zero:  2982
Train_zero:  26968
zero:  29950
Test_one:  804
Train_one:  7570
one:  8374

Count model parameter.
Get a short summary of each layer dimensions and parameters.
_________________________________________________________________
Layer (type)                 Output Shape              Param #   
=================================================================
input_1 (InputLayer)         (None, 80000)             0         
_________________________________________________________________
masking_1 (Masking)          (None, 80000)             0         
_________________________________________________________________
dense_1 (Dense)              (None, 32)                2560032   
_________________________________________________________________
dropout_1 (Dropout)          (None, 32)                0         
_________________________________________________________________
dense_2 (Dense)              (None, 32)                1056      
_________________________________________________________________
dropout_2 (Dropout)          (None, 32)                0         
_________________________________________________________________
dense_3 (Dense)              (None, 2)                 66        
=================================================================
Total params: 2,561,154
Trainable params: 2,561,154
Non-trainable params: 0
_________________________________________________________________
1

Epoch 1/1

   64/15141 [..............................] - ETA: 3:27 - loss: 0.6436 - acc: 0.5938
  128/15141 [..............................] - ETA: 2:01 - loss: 1.1789 - acc: 0.5859
…
