…
Over 10, Under 200 : 25475
Over 200, Under 400 : 1121
Over 400 : 180

hbase-AST
updated_train_data

Sentence length Average : 58

Under 10 : 0
Over 10, Under 200 : 22839
Over 200, Under 400 : 1085
Over 400 : 0


Test_zero:  1851
Train_zero:  16713
zero:  18564
Test_one:  763
Train_one:  7211
one:  7974

Count model parameter.
Get a short summary of each layer dimensions and parameters.
_________________________________________________________________
Layer (type)                 Output Shape              Param #   
=================================================================
input_1 (InputLayer)         (None, 80000)             0         
_________________________________________________________________
masking_1 (Masking)          (None, 80000)             0         
_________________________________________________________________
dense_1 (Dense)              (None, 256)               20480256  
_________________________________________________________________
dropout_1 (Dropout)          (None, 256)               0         
_________________________________________________________________
dense_2 (Dense)              (None, 256)               65792     
_________________________________________________________________
dropout_2 (Dropout)          (None, 256)               0         
_________________________________________________________________
dense_3 (Dense)              (None, 2)                 514       
=================================================================
Total params: 20,546,562
Trainable params: 20,546,562
Non-trainable params: 0
_________________________________________________________________
1

Epoch 1/1

   64/14423 [..............................] - ETA: 3:04 - loss: 0.6997 - acc: 0.3906
  128/14423 [..............................] - ETA: 1:49 - loss: 2.0199 - acc: 0.5469
…
