…
Over 10, Under 200 : 25475
Over 200, Under 400 : 1121
Over 400 : 180

hbase-AST
updated_train_data

Sentence length Average : 58

Under 10 : 0
Over 10, Under 200 : 22839
Over 200, Under 400 : 1085
Over 400 : 0


Test_zero:  1851
Train_zero:  16713
zero:  18564
Test_one:  763
Train_one:  7211
one:  7974

Count model parameter.
Get a short summary of each layer dimensions and parameters.
_________________________________________________________________
Layer (type)                 Output Shape              Param #   
=================================================================
input_1 (InputLayer)         (None, 80000)             0         
_________________________________________________________________
masking_1 (Masking)          (None, 80000)             0         
_________________________________________________________________
dense_1 (Dense)              (None, 1024)              81921024  
_________________________________________________________________
dropout_1 (Dropout)          (None, 1024)              0         
_________________________________________________________________
dense_2 (Dense)              (None, 1024)              1049600   
_________________________________________________________________
dropout_2 (Dropout)          (None, 1024)              0         
_________________________________________________________________
dense_3 (Dense)              (None, 2)                 2050      
=================================================================
Total params: 82,972,674
Trainable params: 82,972,674
Non-trainable params: 0
_________________________________________________________________
1

Epoch 1/1

   64/14423 [..............................] - ETA: 15:05 - loss: 0.6796 - acc: 0.4375
  128/14423 [..............................] - ETA: 8:53 - loss: 2.9790 - acc: 0.5156 
…
