…
Over 10, Under 200 : 37669
Over 200, Under 400 : 2147
Over 400 : 489

hbase-code
updated_train_data

Sentence length Average : 56

Under 10 : 0
Over 10, Under 200 : 29835
Over 200, Under 400 : 1382
Over 400 : 0


Test_zero:  2643
Train_zero:  23540
zero:  26183
Test_one:  812
Train_one:  7677
one:  8489

Count model parameter.
Get a short summary of each layer dimensions and parameters.
_________________________________________________________________
Layer (type)                 Output Shape              Param #   
=================================================================
input_1 (InputLayer)         (None, 80000)             0         
_________________________________________________________________
masking_1 (Masking)          (None, 80000)             0         
_________________________________________________________________
dense_1 (Dense)              (None, 256)               20480256  
_________________________________________________________________
dropout_1 (Dropout)          (None, 256)               0         
_________________________________________________________________
dense_2 (Dense)              (None, 256)               65792     
_________________________________________________________________
dropout_2 (Dropout)          (None, 256)               0         
_________________________________________________________________
dense_3 (Dense)              (None, 2)                 514       
=================================================================
Total params: 20,546,562
Trainable params: 20,546,562
Non-trainable params: 0
_________________________________________________________________
1

Epoch 1/1

   64/15355 [..............................] - ETA: 3:22 - loss: 0.6791 - acc: 0.5469
  128/15355 [..............................] - ETA: 1:57 - loss: 2.4741 - acc: 0.5156
…
