…
Over 10, Under 200 : 37669
Over 200, Under 400 : 2147
Over 400 : 489

hbase-code
updated_train_data

Sentence length Average : 56

Under 10 : 0
Over 10, Under 200 : 29835
Over 200, Under 400 : 1382
Over 400 : 0


Test_zero:  2643
Train_zero:  23540
zero:  26183
Test_one:  812
Train_one:  7677
one:  8489

Count model parameter.
Get a short summary of each layer dimensions and parameters.
_________________________________________________________________
Layer (type)                 Output Shape              Param #   
=================================================================
input_1 (InputLayer)         (None, 200)               0         
_________________________________________________________________
masking_1 (Masking)          (None, 200)               0         
_________________________________________________________________
dense_1 (Dense)              (None, 256)               51456     
_________________________________________________________________
dropout_1 (Dropout)          (None, 256)               0         
_________________________________________________________________
dense_2 (Dense)              (None, 256)               65792     
_________________________________________________________________
dropout_2 (Dropout)          (None, 256)               0         
_________________________________________________________________
dense_3 (Dense)              (None, 2)                 514       
=================================================================
Total params: 117,762
Trainable params: 117,762
Non-trainable params: 0
_________________________________________________________________
1

Epoch 1/1

   64/15355 [..............................] - ETA: 1:27 - loss: 0.7028 - acc: 0.4844
  768/15355 [>.............................] - ETA: 7s - loss: 0.6481 - acc: 0.6172  
 1600/15355 [==>...........................] - ETA: 4s - loss: 0.6056 - acc: 0.6681
…
