…
Over 10, Under 200 : 25475
Over 200, Under 400 : 1121
Over 400 : 180

hbase-AST
updated_train_data

Sentence length Average : 57

Under 10 : 0
Over 10, Under 200 : 22776
Over 200, Under 400 : 1062
Over 400 : 0


Test_zero:  1844
Train_zero:  16629
zero:  18473
Test_one:  763
Train_one:  7209
one:  7972

Count model parameter.
Get a short summary of each layer dimensions and parameters.
_________________________________________________________________
Layer (type)                 Output Shape              Param #   
=================================================================
input_1 (InputLayer)         (None, 200)               0         
_________________________________________________________________
masking_1 (Masking)          (None, 200)               0         
_________________________________________________________________
dense_1 (Dense)              (None, 256)               51456     
_________________________________________________________________
dropout_1 (Dropout)          (None, 256)               0         
_________________________________________________________________
dense_2 (Dense)              (None, 256)               65792     
_________________________________________________________________
dropout_2 (Dropout)          (None, 256)               0         
_________________________________________________________________
dense_3 (Dense)              (None, 2)                 514       
=================================================================
Total params: 117,762
Trainable params: 117,762
Non-trainable params: 0
_________________________________________________________________
1

Epoch 1/1

   64/14419 [..............................] - ETA: 1:18 - loss: 5.7085 - acc: 0.3125
  896/14419 [>.............................] - ETA: 6s - loss: 4.7849 - acc: 0.5301  
 1728/14419 [==>...........................] - ETA: 3s - loss: 4.3039 - acc: 0.5584
…
