…
Over 10, Under 200 : 37669
Over 200, Under 400 : 2147
Over 400 : 489

hbase-code
updated_train_data

Sentence length Average : 62

Under 10 : 0
Over 10, Under 200 : 32523
Over 200, Under 400 : 2158
Over 400 : 0


Test_zero:  3007
Train_zero:  26923
zero:  29930
Test_one:  821
Train_one:  7758
one:  8579

Count model parameter.
Get a short summary of each layer dimensions and parameters.
_________________________________________________________________
Layer (type)                 Output Shape              Param #   
=================================================================
input_1 (InputLayer)         (None, 200)               0         
_________________________________________________________________
masking_1 (Masking)          (None, 200)               0         
_________________________________________________________________
dense_1 (Dense)              (None, 64)                12864     
_________________________________________________________________
dropout_1 (Dropout)          (None, 64)                0         
_________________________________________________________________
dense_2 (Dense)              (None, 64)                4160      
_________________________________________________________________
dropout_2 (Dropout)          (None, 64)                0         
_________________________________________________________________
dense_3 (Dense)              (None, 2)                 130       
=================================================================
Total params: 17,154
Trainable params: 17,154
Non-trainable params: 0
_________________________________________________________________
1

Epoch 1/1

   64/15517 [..............................] - ETA: 1:24 - loss: 5.9555 - acc: 0.5312
 1344/15517 [=>............................] - ETA: 4s - loss: 3.9947 - acc: 0.6213  
 2560/15517 [===>..........................] - ETA: 2s - loss: 3.6838 - acc: 0.6430
…
