…
Over 10, Under 200 : 35282
Over 200, Under 400 : 3981
Over 400 : 1973

hbase-CAST
updated_train_data

Sentence length Average : 74

Under 10 : 0
Over 10, Under 200 : 30897
Over 200, Under 400 : 3419
Over 400 : 0


Test_zero:  2957
Train_zero:  26756
zero:  29713
Test_one:  799
Train_one:  7560
one:  8359

Count model parameter.
Get a short summary of each layer dimensions and parameters.
_________________________________________________________________
Layer (type)                 Output Shape              Param #   
=================================================================
input_1 (InputLayer)         (None, 80000)             0         
_________________________________________________________________
masking_1 (Masking)          (None, 80000)             0         
_________________________________________________________________
dense_1 (Dense)              (None, 1024)              81921024  
_________________________________________________________________
dropout_1 (Dropout)          (None, 1024)              0         
_________________________________________________________________
dense_2 (Dense)              (None, 1024)              1049600   
_________________________________________________________________
dropout_2 (Dropout)          (None, 1024)              0         
_________________________________________________________________
dense_3 (Dense)              (None, 2)                 2050      
=================================================================
Total params: 82,972,674
Trainable params: 82,972,674
Non-trainable params: 0
_________________________________________________________________
1

Epoch 1/1

   64/15121 [..............................] - ETA: 9:32 - loss: 0.7146 - acc: 0.4062
  128/15121 [..............................] - ETA: 6:22 - loss: 2.1689 - acc: 0.5625
…
