…
Over 10, Under 200 : 25475
Over 200, Under 400 : 1121
Over 400 : 180

hbase-AST
updated_train_data

Sentence length Average : 59

Under 10 : 0
Over 10, Under 200 : 22932
Over 200, Under 400 : 1156
Over 400 : 0


Test_zero:  1866
Train_zero:  16848
zero:  18714
Test_one:  764
Train_one:  7240
one:  8004

Count model parameter.
Get a short summary of each layer dimensions and parameters.
_________________________________________________________________
Layer (type)                 Output Shape              Param #   
=================================================================
input_1 (InputLayer)         (None, 200)               0         
_________________________________________________________________
masking_1 (Masking)          (None, 200)               0         
_________________________________________________________________
dense_1 (Dense)              (None, 1024)              205824    
_________________________________________________________________
dropout_1 (Dropout)          (None, 1024)              0         
_________________________________________________________________
dense_2 (Dense)              (None, 1024)              1049600   
_________________________________________________________________
dropout_2 (Dropout)          (None, 1024)              0         
_________________________________________________________________
dense_3 (Dense)              (None, 2)                 2050      
=================================================================
Total params: 1,257,474
Trainable params: 1,257,474
Non-trainable params: 0
_________________________________________________________________
1

Epoch 1/1

   64/14481 [..............................] - ETA: 1:29 - loss: 2.7341 - acc: 0.5469
  256/14481 [..............................] - ETA: 25s - loss: 6.2241 - acc: 0.5430 
…
