…
Over 10, Under 200 : 37669
Over 200, Under 400 : 2147
Over 400 : 489

hbase-code
updated_train_data

Sentence length Average : 50

Under 10 : 0
Over 10, Under 200 : 27203
Over 200, Under 400 : 820
Over 400 : 0


Test_zero:  2300
Train_zero:  20480
zero:  22780
Test_one:  797
Train_one:  7543
one:  8340

Count model parameter.
Get a short summary of each layer dimensions and parameters.
_________________________________________________________________
Layer (type)                 Output Shape              Param #   
=================================================================
input_1 (InputLayer)         (None, 200)               0         
_________________________________________________________________
masking_1 (Masking)          (None, 200)               0         
_________________________________________________________________
dense_1 (Dense)              (None, 1024)              205824    
_________________________________________________________________
dropout_1 (Dropout)          (None, 1024)              0         
_________________________________________________________________
dense_2 (Dense)              (None, 1024)              1049600   
_________________________________________________________________
dropout_2 (Dropout)          (None, 1024)              0         
_________________________________________________________________
dense_3 (Dense)              (None, 2)                 2050      
=================================================================
Total params: 1,257,474
Trainable params: 1,257,474
Non-trainable params: 0
_________________________________________________________________
1

Epoch 1/1

   64/15087 [..............................] - ETA: 51s - loss: 3.7571 - acc: 0.5312
  384/15087 [..............................] - ETA: 10s - loss: 6.8829 - acc: 0.5026
  768/15087 [>.............................] - ETA: 6s - loss: 7.2611 - acc: 0.5143 
…
