…
Sentence length Average : 123

Under 10 : 979
Over 10, Under 30 : 1854
Over 30, Under 100 : 5152
Over 100, Under 150 : 2553
Over 150, Under 200 : 1719
Over 200, Under 400 : 2633
Over 400 : 416

1314
Count model parameter.
Get a short summary of each layer dimensions and parameters.
__________________________________________________________________________________________________
Layer (type)                    Output Shape         Param #     Connected to                     
==================================================================================================
input_1 (InputLayer)            (None, 256, 200)     0                                            
__________________________________________________________________________________________________
masking_1 (Masking)             (None, 256, 200)     0           input_1[0][0]                    
__________________________________________________________________________________________________
lstm_1 (LSTM)                   (None, 64)           67840       masking_1[0][0]                  
__________________________________________________________________________________________________
lstm_2 (LSTM)                   (None, 64)           67840       masking_1[0][0]                  
__________________________________________________________________________________________________
dropout_1 (Dropout)             (None, 64)           0           lstm_1[0][0]                     
__________________________________________________________________________________________________
dropout_2 (Dropout)             (None, 64)           0           lstm_2[0][0]                     
__________________________________________________________________________________________________
concatenate_1 (Concatenate)     (None, 128)          0           dropout_1[0][0]                  
                                                                 dropout_2[0][0]                  
__________________________________________________________________________________________________
dropout_3 (Dropout)             (None, 128)          0           concatenate_1[0][0]              
__________________________________________________________________________________________________
dense_1 (Dense)                 (None, 2)            258         dropout_3[0][0]                  
==================================================================================================
Total params: 135,938
Trainable params: 135,938
Non-trainable params: 0
__________________________________________________________________________________________________
Count model2 parameter.
Get a short summary of each layer dimensions and parameters.
__________________________________________________________________________________________________
Layer (type)                    Output Shape         Param #     Connected to                     
==================================================================================================
input_1 (InputLayer)            (None, 704, 200)     0                                            
__________________________________________________________________________________________________
masking_1 (Masking)             (None, 704, 200)     0           input_1[0][0]                    
__________________________________________________________________________________________________
lstm_1 (LSTM)                   (None, 64)           67840       masking_1[0][0]                  
__________________________________________________________________________________________________
lstm_2 (LSTM)                   (None, 64)           67840       masking_1[0][0]                  
__________________________________________________________________________________________________
dropout_1 (Dropout)             (None, 64)           0           lstm_1[0][0]                     
__________________________________________________________________________________________________
dropout_2 (Dropout)             (None, 64)           0           lstm_2[0][0]                     
__________________________________________________________________________________________________
concatenate_1 (Concatenate)     (None, 128)          0           dropout_1[0][0]                  
                                                                 dropout_2[0][0]                  
__________________________________________________________________________________________________
dropout_3 (Dropout)             (None, 128)          0           concatenate_1[0][0]              
__________________________________________________________________________________________________
dense_1 (Dense)                 (None, 2)            258         dropout_3[0][0]                  
==================================================================================================
Total params: 135,938
Trainable params: 135,938
Non-trainable params: 0
__________________________________________________________________________________________________
Count model3 parameter.
Get a short summary of each layer dimensions and parameters.
__________________________________________________________________________________________________
Layer (type)                    Output Shape         Param #     Connected to                     
==================================================================================================
input_1 (InputLayer)            (None, 1314, 200)    0                                            
__________________________________________________________________________________________________
masking_1 (Masking)             (None, 1314, 200)    0           input_1[0][0]                    
__________________________________________________________________________________________________
lstm_1 (LSTM)                   (None, 64)           67840       masking_1[0][0]                  
__________________________________________________________________________________________________
lstm_2 (LSTM)                   (None, 64)           67840       masking_1[0][0]                  
__________________________________________________________________________________________________
dropout_1 (Dropout)             (None, 64)           0           lstm_1[0][0]                     
__________________________________________________________________________________________________
dropout_2 (Dropout)             (None, 64)           0           lstm_2[0][0]                     
__________________________________________________________________________________________________
concatenate_1 (Concatenate)     (None, 128)          0           dropout_1[0][0]                  
                                                                 dropout_2[0][0]                  
__________________________________________________________________________________________________
dropout_3 (Dropout)             (None, 128)          0           concatenate_1[0][0]              
__________________________________________________________________________________________________
dense_1 (Dense)                 (None, 2)            258         dropout_3[0][0]                  
==================================================================================================
Total params: 135,938
Trainable params: 135,938
Non-trainable params: 0
__________________________________________________________________________________________________

Test accuracy: 86.98495748855461

data size :  15306

zero :  7657

one :  7649

train_zero :  6855
…
