…
Sentence length Average : 27

Under 10 : 7489
Over 10, Under 30 : 6290
Over 30, Under 100 : 5218
Over 100, Under 150 : 727
Over 150, Under 200 : 126
Over 200, Under 400 : 4
Over 400 : 1

431
Count model parameter.
Get a short summary of each layer dimensions and parameters.
__________________________________________________________________________________________________
Layer (type)                    Output Shape         Param #     Connected to                     
==================================================================================================
input_1 (InputLayer)            (None, 188, 200)     0                                            
__________________________________________________________________________________________________
input_2 (InputLayer)            (None, 431, 200)     0                                            
__________________________________________________________________________________________________
masking_1 (Masking)             (None, 188, 200)     0           input_1[0][0]                    
__________________________________________________________________________________________________
masking_2 (Masking)             (None, 431, 200)     0           input_2[0][0]                    
__________________________________________________________________________________________________
input_3 (InputLayer)            (None, 631, 200)     0                                            
__________________________________________________________________________________________________
forwards_1 (LSTM)               (None, 64)           67840       masking_1[0][0]                  
__________________________________________________________________________________________________
backwords_1 (LSTM)              (None, 64)           67840       masking_1[0][0]                  
__________________________________________________________________________________________________
forwards_2 (LSTM)               (None, 64)           67840       masking_2[0][0]                  
__________________________________________________________________________________________________
backwards_2 (LSTM)              (None, 64)           67840       masking_2[0][0]                  
__________________________________________________________________________________________________
masking_3 (Masking)             (None, 631, 200)     0           input_3[0][0]                    
__________________________________________________________________________________________________
input_4 (InputLayer)            (None, 431, 200)     0                                            
__________________________________________________________________________________________________
after_dp_forward_1 (Dropout)    (None, 64)           0           forwards_1[0][0]                 
__________________________________________________________________________________________________
after_dp_backward_1 (Dropout)   (None, 64)           0           backwords_1[0][0]                
__________________________________________________________________________________________________
after_dp_forward_2 (Dropout)    (None, 64)           0           forwards_2[0][0]                 
__________________________________________________________________________________________________
after_dp_backward_2 (Dropout)   (None, 64)           0           backwards_2[0][0]                
__________________________________________________________________________________________________
forwards_3 (LSTM)               (None, 64)           67840       masking_3[0][0]                  
__________________________________________________________________________________________________
backwards_3 (LSTM)              (None, 64)           67840       masking_3[0][0]                  
__________________________________________________________________________________________________
masking_4 (Masking)             (None, 431, 200)     0           input_4[0][0]                    
__________________________________________________________________________________________________
concatenate_1 (Concatenate)     (None, 128)          0           after_dp_forward_1[0][0]         
                                                                 after_dp_backward_1[0][0]        
__________________________________________________________________________________________________
concatenate_2 (Concatenate)     (None, 128)          0           after_dp_forward_2[0][0]         
                                                                 after_dp_backward_2[0][0]        
__________________________________________________________________________________________________
after_dp_forward_3 (Dropout)    (None, 64)           0           forwards_3[0][0]                 
__________________________________________________________________________________________________
after_dp_backward_3 (Dropout)   (None, 64)           0           backwards_3[0][0]                
__________________________________________________________________________________________________
forwards_4 (LSTM)               (None, 64)           67840       masking_4[0][0]                  
__________________________________________________________________________________________________
backwards_4 (LSTM)              (None, 64)           67840       masking_4[0][0]                  
__________________________________________________________________________________________________
after_dp_1 (Dropout)            (None, 128)          0           concatenate_1[0][0]              
__________________________________________________________________________________________________
after_dp_2 (Dropout)            (None, 128)          0           concatenate_2[0][0]              
__________________________________________________________________________________________________
concatenate_3 (Concatenate)     (None, 128)          0           after_dp_forward_3[0][0]         
                                                                 after_dp_backward_3[0][0]        
__________________________________________________________________________________________________
after_dp_forward_4 (Dropout)    (None, 64)           0           forwards_4[0][0]                 
__________________________________________________________________________________________________/home/2014313303/taeha/JavaAutoLogging/model.py:149: UserWarning: Update your `Model` call to the Keras 2 API: `Model(inputs=[<tf.Tenso..., outputs=Tensor("ou...)`
  model = Model(input=[input1, input2, input3, input4], output=output)
/usr/local/lib/python3.5/dist-packages/keras/engine/training.py:490: UserWarning: Discrepancy between trainable weights and collected trainable weights, did you set `model.trainable` without calling `model.compile` after ?
  'Discrepancy between trainable weights and collected trainable'
WARNING:tensorflow:From /home/2014313303/.local/lib/python3.5/site-packages/tensorflow/python/ops/math_ops.py:3066: to_int32 (from tensorflow.python.ops.math_ops) is deprecated and will be removed in a future version.
Instructions for updating:
Use tf.cast instead.

after_dp_backward_4 (Dropout)   (None, 64)           0           backwards_4[0][0]                
__________________________________________________________________________________________________
concatenate_5 (Concatenate)     (None, 256)          0           after_dp_1[0][0]                 
                                                                 after_dp_2[0][0]                 
__________________________________________________________________________________________________
after_dp_3 (Dropout)            (None, 128)          0           concatenate_3[0][0]              
__________________________________________________________________________________________________
concatenate_4 (Concatenate)     (None, 128)          0           after_dp_forward_4[0][0]         
                                                                 after_dp_backward_4[0][0]        
__________________________________________________________________________________________________
concatenate_6 (Concatenate)     (None, 384)          0           concatenate_5[0][0]              
                                                                 after_dp_3[0][0]                 
__________________________________________________________________________________________________
after_dp_4 (Dropout)            (None, 128)          0           concatenate_4[0][0]              
__________________________________________________________________________________________________
concatenate_7 (Concatenate)     (None, 512)          0           concatenate_6[0][0]              
                                                                 after_dp_4[0][0]                 
__________________________________________________________________________________________________
dense_1 (Dense)                 (None, 512)          262656      concatenate_7[0][0]              
__________________________________________________________________________________________________
dense_2 (Dense)                 (None, 768)          393984      dense_1[0][0]                    
__________________________________________________________________________________________________
dense_3 (Dense)                 (None, 512)          393728      dense_2[0][0]                    
__________________________________________________________________________________________________
dense_4 (Dense)                 (None, 256)          131328      dense_3[0][0]                    
__________________________________________________________________________________________________
dense_5 (Dense)                 (None, 128)          32896       dense_4[0][0]                    
__________________________________________________________________________________________________
dense_6_task_layer (Dense)      (None, 64)           8256        dense_5[0][0]                    
__________________________________________________________________________________________________
output_task_layer (Dense)       (None, 2)            130         dense_6_task_layer[0][0]         
==================================================================================================
Total params: 3,523,010
Trainable params: 1,765,698
Non-trainable params: 1,757,312
__________________________________________________________________________________________________
1

Epoch 1/1

 64/100 [==================>...........] - ETA: 5s - loss: 1.3394 - acc: 0.5312
…
