…
Sentence length Average : 30

Under 10 : 7492
Over 10, Under 30 : 6294
Over 30, Under 100 : 5232
Over 100, Under 150 : 774
Over 150, Under 200 : 347
Over 200, Under 400 : 186
Over 400 : 3

621
Count model parameter.
Get a short summary of each layer dimensions and parameters.
__________________________________________________________________________________________________
Layer (type)                    Output Shape         Param #     Connected to                     
==================================================================================================
input_1 (InputLayer)            (None, 300, 200)     0                                            
__________________________________________________________________________________________________
input_2 (InputLayer)            (None, 621, 200)     0                                            
__________________________________________________________________________________________________
masking_1 (Masking)             (None, 300, 200)     0           input_1[0][0]                    
__________________________________________________________________________________________________
masking_2 (Masking)             (None, 621, 200)     0           input_2[0][0]                    
__________________________________________________________________________________________________
input_3 (InputLayer)            (None, 697, 200)     0                                            
__________________________________________________________________________________________________
forwards_1 (LSTM)               (None, 64)           67840       masking_1[0][0]                  
__________________________________________________________________________________________________
backwords_1 (LSTM)              (None, 64)           67840       masking_1[0][0]                  
__________________________________________________________________________________________________
forwards_2 (LSTM)               (None, 64)           67840       masking_2[0][0]                  
__________________________________________________________________________________________________
backwards_2 (LSTM)              (None, 64)           67840       masking_2[0][0]                  
__________________________________________________________________________________________________
masking_3 (Masking)             (None, 697, 200)     0           input_3[0][0]                    
__________________________________________________________________________________________________
input_4 (InputLayer)            (None, 621, 200)     0                                            
__________________________________________________________________________________________________
after_dp_forward_1 (Dropout)    (None, 64)           0           forwards_1[0][0]                 
__________________________________________________________________________________________________
after_dp_backward_1 (Dropout)   (None, 64)           0           backwords_1[0][0]                
__________________________________________________________________________________________________
after_dp_forward_2 (Dropout)    (None, 64)           0           forwards_2[0][0]                 
__________________________________________________________________________________________________
after_dp_backward_2 (Dropout)   (None, 64)           0           backwards_2[0][0]                
__________________________________________________________________________________________________
forwards_3 (LSTM)               (None, 64)           67840       masking_3[0][0]                  
__________________________________________________________________________________________________
backwards_3 (LSTM)              (None, 64)           67840       masking_3[0][0]                  
__________________________________________________________________________________________________
masking_4 (Masking)             (None, 621, 200)     0           input_4[0][0]                    
__________________________________________________________________________________________________
concatenate_1 (Concatenate)     (None, 128)          0           after_dp_forward_1[0][0]         
                                                                 after_dp_backward_1[0][0]        
__________________________________________________________________________________________________
concatenate_2 (Concatenate)     (None, 128)          0           after_dp_forward_2[0][0]         
                                                                 after_dp_backward_2[0][0]        
__________________________________________________________________________________________________
after_dp_forward_3 (Dropout)    (None, 64)           0           forwards_3[0][0]                 
__________________________________________________________________________________________________
after_dp_backward_3 (Dropout)   (None, 64)           0           backwards_3[0][0]                
__________________________________________________________________________________________________
forwards_4 (LSTM)               (None, 64)           67840       masking_4[0][0]                  
__________________________________________________________________________________________________
backwards_4 (LSTM)              (None, 64)           67840       masking_4[0][0]                  
__________________________________________________________________________________________________
after_dp_1 (Dropout)            (None, 128)          0           concatenate_1[0][0]              
__________________________________________________________________________________________________
after_dp_2 (Dropout)            (None, 128)          0           concatenate_2[0][0]              
__________________________________________________________________________________________________
concatenate_3 (Concatenate)     (None, 128)          0           after_dp_forward_3[0][0]         
                                                                 after_dp_backward_3[0][0]        
__________________________________________________________________________________________________
after_dp_forward_4 (Dropout)    (None, 64)           0           forwards_4[0][0]                 
__________________________________________________________________________________________________
after_dp_backward_4 (Dropout)   (None, 64)           0           backwards_4[0][0]                
__________________________________________________________________________________________________
concatenate_5 (Concatenate)     (None, 256)          0           after_dp_1[0][0]                 
                                                                 after_dp_2[0][0]                 
__________________________________________________________________________________________________
after_dp_3 (Dropout)            (None, 128)          0           concatenate_3[0][0]              
__________________________________________________________________________________________________
concatenate_4 (Concatenate)     (None, 128)          0           after_dp_forward_4[0][0]         
                                                                 after_dp_backward_4[0][0]        
__________________________________________________________________________________________________
concatenate_6 (Concatenate)     (None, 384)          0           concatenate_5[0][0]              
                                                                 after_dp_3[0][0]                 
__________________________________________________________________________________________________
after_dp_4 (Dropout)            (None, 128)          0           concatenate_4[0][0]              
__________________________________________________________________________________________________
concatenate_7 (Concatenate)     (None, 512)          0           concatenate_6[0][0]              
                                                                 after_dp_4[0][0]                 
__________________________________________________________________________________________________
dense_1 (Dense)                 (None, 384)          196992      concatenate_7[0][0]              
__________________________________________________________________________________________________
dense_2 (Dense)                 (None, 512)          197120      dense_1[0][0]                    
__________________________________________________________________________________________________
dense_3 (Dense)                 (None, 256)          131328      dense_2[0][0]                    
__________________________________________________________________________________________________
output (Dense)                  (None, 2)            514         dense_3[0][0]                    
==================================================================================================
Total params: 1,068,674
Trainable params: 1,068,674
Non-trainable params: 0
__________________________________________________________________________________________________
1

Epoch 1/1

  64/5000 [..............................] - ETA: 12:24 - loss: 0.7122 - acc: 0.4531
…
