…
Sentence length Average : 67

Under 10 : 0
Over 10, Under 200 : 4244
Over 200, Under 400 : 154
Over 400 : 0


Test_zero:  431
Train_zero:  3870
zero:  4301
Test_one:  55
Train_one:  528
one:  583
Count model parameter.
Get a short summary of each layer dimensions and parameters.
__________________________________________________________________________________________________
Layer (type)                    Output Shape         Param #     Connected to                     
==================================================================================================
input_1 (InputLayer)            (None, 400, 200)     0                                            
__________________________________________________________________________________________________
input_2 (InputLayer)            (None, 400, 200)     0                                            
__________________________________________________________________________________________________
masking_1 (Masking)             (None, 400, 200)     0           input_1[0][0]                    
__________________________________________________________________________________________________
masking_2 (Masking)             (None, 400, 200)     0           input_2[0][0]                    
__________________________________________________________________________________________________
forwards_1 (LSTM)               (None, 256)          467968      masking_1[0][0]                  
__________________________________________________________________________________________________
backwords_1 (LSTM)              (None, 256)          467968      masking_1[0][0]                  
__________________________________________________________________________________________________
forwards_2 (LSTM)               (None, 256)          467968      masking_2[0][0]                  
__________________________________________________________________________________________________
backwards_2 (LSTM)              (None, 256)          467968      masking_2[0][0]                  
__________________________________________________________________________________________________
after_dp_forward_1 (Dropout)    (None, 256)          0           forwards_1[0][0]                 
__________________________________________________________________________________________________
after_dp_backward_1 (Dropout)   (None, 256)          0           backwords_1[0][0]                
__________________________________________________________________________________________________
after_dp_forward_2 (Dropout)    (None, 256)          0           forwards_2[0][0]                 
__________________________________________________________________________________________________
after_dp_backward_2 (Dropout)   (None, 256)          0           backwards_2[0][0]                
__________________________________________________________________________________________________
concatenate_1 (Concatenate)     (None, 512)          0           after_dp_forward_1[0][0]         
                                                                 after_dp_backward_1[0][0]        
__________________________________________________________________________________________________
concatenate_2 (Concatenate)     (None, 512)          0           after_dp_forward_2[0][0]         
                                                                 after_dp_backward_2[0][0]        
__________________________________________________________________________________________________
after_dp_1 (Dropout)            (None, 512)          0           concatenate_1[0][0]              
__________________________________________________________________________________________________
after_dp_2 (Dropout)            (None, 512)          0           concatenate_2[0][0]              
__________________________________________________________________________________________________
concatenate_3 (Concatenate)     (None, 1024)         0           after_dp_1[0][0]                 
                                                                 after_dp_2[0][0]                 
__________________________________________________________________________________________________
output (Dense)                  (None, 2)            2050        concatenate_3[0][0]              
==================================================================================================
Total params: 1,873,922
Trainable params: 1,873,922
Non-trainable params: 0
__________________________________________________________________________________________________
1

Epoch 1/1
 - 47s - loss: 0.6746 - acc: 0.6471

Test accuracy: 82.88288288288288

data size :  1168
…
