…
2019-09-25 16:47:21.088411: I tensorflow/compiler/xla/service/service.cc:150] XLA service 0xa6b0b30 executing computations on platform Host. Devices:
2019-09-25 16:47:21.088467: I tensorflow/compiler/xla/service/service.cc:158]   StreamExecutor device (0): <undefined>, <undefined>
Standard data
zero :  7657
one :  7650

First data
zero :  7657
one :  7650

Second data
zero :  7657
one :  7650

Loaded model from disk
__________________________________________________________________________________________________
Layer (type)                    Output Shape         Param #     Connected to                     
==================================================================================================
input_1 (InputLayer)            (None, 296, 200)     0                                            
__________________________________________________________________________________________________
input_2 (InputLayer)            (None, 704, 200)     0                                            
__________________________________________________________________________________________________
masking_1 (Masking)             (None, 296, 200)     0           input_1[0][0]                    
__________________________________________________________________________________________________
masking_2 (Masking)             (None, 704, 200)     0           input_2[0][0]                    
__________________________________________________________________________________________________
forwards_1 (LSTM)               (None, 64)           67840       masking_1[0][0]                  
__________________________________________________________________________________________________
backwords_1 (LSTM)              (None, 64)           67840       masking_1[0][0]                  
__________________________________________________________________________________________________
forwards_2 (LSTM)               (None, 64)           67840       masking_2[0][0]                  
__________________________________________________________________________________________________
backwards_2 (LSTM)              (None, 64)           67840       masking_2[0][0]                  
__________________________________________________________________________________________________
after_dp_forward_1 (Dropout)    (None, 64)           0           forwards_1[0][0]                 
__________________________________________________________________________________________________
after_dp_backward_1 (Dropout)   (None, 64)           0           backwords_1[0][0]                
__________________________________________________________________________________________________
after_dp_forward_2 (Dropout)    (None, 64)           0           forwards_2[0][0]                 
__________________________________________________________________________________________________
after_dp_backward_2 (Dropout)   (None, 64)           0           backwards_2[0][0]                
__________________________________________________________________________________________________
concatenate_1 (Concatenate)     (None, 128)          0           after_dp_forward_1[0][0]         
                                                                 after_dp_backward_1[0][0]        
__________________________________________________________________________________________________
concatenate_2 (Concatenate)     (None, 128)          0           after_dp_forward_2[0][0]         
                                                                 after_dp_backward_2[0][0]        
__________________________________________________________________________________________________
after_dp_1 (Dropout)            (None, 128)          0           concatenate_1[0][0]              
__________________________________________________________________________________________________
after_dp_2 (Dropout)            (None, 128)          0           concatenate_2[0][0]              
__________________________________________________________________________________________________
concatenate_3 (Concatenate)     (None, 256)          0           after_dp_1[0][0]                 
                                                                 after_dp_2[0][0]                 
__________________________________________________________________________________________________
dense_1 (Dense)                 (None, 256)          65792       concatenate_3[0][0]              
__________________________________________________________________________________________________
dense_2 (Dense)                 (None, 128)          32896       dense_1[0][0]                    
__________________________________________________________________________________________________
dense_3 (Dense)                 (None, 64)           8256        dense_2[0][0]                    
__________________________________________________________________________________________________
output (Dense)                  (None, 2)            130         dense_3[0][0]                    
==================================================================================================
Total params: 378,434
Trainable params: 378,434
Non-trainable params: 0
__________________________________________________________________________________________________
input_1
[None, 296, 200]
input_2
[None, 704, 200]
masking_1
[None, 296, 200]
masking_2
[None, 704, 200]
…
