…
Sentence length Average : 43

Under 10 : 4057
Over 10, Under 30 : 2769
Over 30, Under 100 : 5057
Over 100, Under 150 : 1141
Over 150, Under 200 : 404
Over 200, Under 400 : 153
Over 400 : 2

Count model parameter.
Get a short summary of each layer dimensions and parameters.
__________________________________________________________________________________________________
Layer (type)                    Output Shape         Param #     Connected to                     
==================================================================================================
input_1 (InputLayer)            (None, 227, 200)     0                                            
__________________________________________________________________________________________________
input_2 (InputLayer)            (None, 703, 200)     0                                            
__________________________________________________________________________________________________
masking_1 (Masking)             (None, 227, 200)     0           input_1[0][0]                    
__________________________________________________________________________________________________
masking_2 (Masking)             (None, 703, 200)     0           input_2[0][0]                    
__________________________________________________________________________________________________
input_3 (InputLayer)            (None, 1220, 200)    0                                            
__________________________________________________________________________________________________
forwards_1 (LSTM)               (None, 64)           67840       masking_1[0][0]                  
__________________________________________________________________________________________________
backwords_1 (LSTM)              (None, 64)           67840       masking_1[0][0]                  
__________________________________________________________________________________________________
forwards_2 (LSTM)               (None, 64)           67840       masking_2[0][0]                  
__________________________________________________________________________________________________
backwards_2 (LSTM)              (None, 64)           67840       masking_2[0][0]                  
__________________________________________________________________________________________________
masking_3 (Masking)             (None, 1220, 200)    0           input_3[0][0]                    
__________________________________________________________________________________________________
input_4 (InputLayer)            (None, 704, 200)     0                                            
__________________________________________________________________________________________________
after_dp_forward_1 (Dropout)    (None, 64)           0           forwards_1[0][0]                 
__________________________________________________________________________________________________
after_dp_backward_1 (Dropout)   (None, 64)           0           backwords_1[0][0]                
__________________________________________________________________________________________________
after_dp_forward_2 (Dropout)    (None, 64)           0           forwards_2[0][0]                 
__________________________________________________________________________________________________
after_dp_backward_2 (Dropout)   (None, 64)           0           backwards_2[0][0]                
__________________________________________________________________________________________________
forwards_3 (LSTM)               (None, 64)           67840       masking_3[0][0]                  
__________________________________________________________________________________________________
backwards_3 (LSTM)              (None, 64)           67840       masking_3[0][0]                  
__________________________________________________________________________________________________
masking_4 (Masking)             (None, 704, 200)     0           input_4[0][0]                    
__________________________________________________________________________________________________
concatenate_1 (Concatenate)     (None, 128)          0           after_dp_forward_1[0][0]         
                                                                 after_dp_backward_1[0][0]        
__________________________________________________________________________________________________
concatenate_2 (Concatenate)     (None, 128)          0           after_dp_forward_2[0][0]         
                                                                 after_dp_backward_2[0][0]        
__________________________________________________________________________________________________
after_dp_forward_3 (Dropout)    (None, 64)           0           forwards_3[0][0]                 
__________________________________________________________________________________________________
after_dp_backward_3 (Dropout)   (None, 64)           0           backwards_3[0][0]                
__________________________________________________________________________________________________
forwards_4 (LSTM)               (None, 64)           67840       masking_4[0][0]                  
__________________________________________________________________________________________________
backwards_4 (LSTM)              (None, 64)           67840       masking_4[0][0]                  
__________________________________________________________________________________________________
after_dp_1 (Dropout)            (None, 128)          0           concatenate_1[0][0]              
__________________________________________________________________________________________________
after_dp_2 (Dropout)            (None, 128)          0           concatenate_2[0][0]              
__________________________________________________________________________________________________
concatenate_3 (Concatenate)     (None, 128)          0           after_dp_forward_3[0][0]         
                                                                 after_dp_backward_3[0][0]        
__________________________________________________________________________________________________
after_dp_forward_4 (Dropout)    (None, 64)           0           forwards_4[0][0]                 
__________________________________________________________________________________________________
after_dp_backward_4 (Dropout)   (None, 64)           0           backwards_4[0][0]                
__________________________________________________________________________________________________
concatenate_5 (Concatenate)     (None, 256)          0           after_dp_1[0][0]                 
                                                                 after_dp_2[0][0]                 
__________________________________________________________________________________________________
after_dp_3 (Dropout)            (None, 128)          0           concatenate_3[0][0]              
__________________________________________________________________________________________________
concatenate_4 (Concatenate)     (None, 128)          0           after_dp_forward_4[0][0]         
                                                                 after_dp_backward_4[0][0]        
__________________________________________________________________________________________________
concatenate_6 (Concatenate)     (None, 384)          0           concatenate_5[0][0]              
                                                                 after_dp_3[0][0]                 
__________________________________________________________________________________________________
after_dp_4 (Dropout)            (None, 128)          0           concatenate_4[0][0]              
__________________________________________________________________________________________________
concatenate_7 (Concatenate)     (None, 512)          0           concatenate_6[0][0]              
                                                                 after_dp_4[0][0]                 
__________________________________________________________________________________________________
dense_1 (Dense)                 (None, 512)          262656      concatenate_7[0][0]              
__________________________________________________________________________________________________
dense_2 (Dense)                 (None, 768)          393984      dense_1[0][0]                    
__________________________________________________________________________________________________
dense_3 (Dense)                 (None, 512)          393728      dense_2[0][0]                    
__________________________________________________________________________________________________
dense_4 (Dense)                 (None, 256)          131328      dense_3[0][0]                    
__________________________________________________________________________________________________
dense_5 (Dense)                 (None, 128)          32896       dense_4[0][0]                    
__________________________________________________________________________________________________
output (Dense)                  (None, 2)            258         dense_5[0][0]                    
==================================================================================================
Total params: 1,757,570
Trainable params: 1,757,570
Non-trainable params: 0
__________________________________________________________________________________________________

Test accuracy: 75.22638592358095

test data size :  13583

test_zero :  6816

test_one :  6767
…
