…
Sentence length Average : 81

Under 10 : 2645
Over 10, Under 30 : 2272
Over 30, Under 100 : 4569
Over 100, Under 150 : 1637
Over 150, Under 200 : 1010
Over 200, Under 400 : 1359
Over 400 : 90

608
Count model parameter.
Get a short summary of each layer dimensions and parameters.
__________________________________________________________________________________________________
Layer (type)                    Output Shape         Param #     Connected to                     
==================================================================================================
input_1 (InputLayer)            (None, 243, 200)     0                                            
__________________________________________________________________________________________________
input_2 (InputLayer)            (None, 445, 200)     0                                            
__________________________________________________________________________________________________
masking_1 (Masking)             (None, 243, 200)     0           input_1[0][0]                    
__________________________________________________________________________________________________
masking_2 (Masking)             (None, 445, 200)     0           input_2[0][0]                    
__________________________________________________________________________________________________
input_3 (InputLayer)            (None, 608, 200)     0                                            
__________________________________________________________________________________________________
forwards_1 (LSTM)               (None, 64)           67840       masking_1[0][0]                  
__________________________________________________________________________________________________
backwords_1 (LSTM)              (None, 64)           67840       masking_1[0][0]                  
__________________________________________________________________________________________________
forwards_2 (LSTM)               (None, 64)           67840       masking_2[0][0]                  
__________________________________________________________________________________________________
backwards_2 (LSTM)              (None, 64)           67840       masking_2[0][0]                  
__________________________________________________________________________________________________
masking_3 (Masking)             (None, 608, 200)     0           input_3[0][0]                    
__________________________________________________________________________________________________
after_dp_forward_1 (Dropout)    (None, 64)           0           forwards_1[0][0]                 
__________________________________________________________________________________________________
after_dp_backward_1 (Dropout)   (None, 64)           0           backwords_1[0][0]                
__________________________________________________________________________________________________
after_dp_forward_2 (Dropout)    (None, 64)           0           forwards_2[0][0]                 
__________________________________________________________________________________________________
after_dp_backward_2 (Dropout)   (None, 64)           0           backwards_2[0][0]                
__________________________________________________________________________________________________
forwards_3 (LSTM)               (None, 64)           67840       masking_3[0][0]                  
__________________________________________________________________________________________________
backwards_3 (LSTM)              (None, 64)           67840       masking_3[0][0]                  
__________________________________________________________________________________________________
concatenate_1 (Concatenate)     (None, 128)          0           after_dp_forward_1[0][0]         
                                                                 after_dp_backward_1[0][0]        
__________________________________________________________________________________________________
concatenate_2 (Concatenate)     (None, 128)          0           after_dp_forward_2[0][0]         
                                                                 after_dp_backward_2[0][0]        
__________________________________________________________________________________________________
after_dp_forward_3 (Dropout)    (None, 64)           0           forwards_3[0][0]                 
__________________________________________________________________________________________________
after_dp_backward_3 (Dropout)   (None, 64)           0           backwards_3[0][0]                
__________________________________________________________________________________________________
after_dp_1 (Dropout)            (None, 128)          0           concatenate_1[0][0]              
__________________________________________________________________________________________________
after_dp_2 (Dropout)            (None, 128)          0           concatenate_2[0][0]              
__________________________________________________________________________________________________
concatenate_3 (Concatenate)     (None, 128)          0           after_dp_forward_3[0][0]         
                                                                 after_dp_backward_3[0][0]        
__________________________________________________________________________________________________
concatenate_4 (Concatenate)     (None, 256)          0           after_dp_1[0][0]                 
                                                                 after_dp_2[0][0]                 
__________________________________________________________________________________________________
after_dp_3 (Dropout)            (None, 128)          0           concatenate_3[0][0]              
__________________________________________________________________________________________________
concatenate_5 (Concatenate)     (None, 384)          0           concatenate_4[0][0]              
                                                                 after_dp_3[0][0]                 
__________________________________________________________________________________________________
dense_1 (Dense)                 (None, 384)          147840      concatenate_5[0][0]              
__________________________________________________________________________________________________
dense_2 (Dense)                 (None, 512)          197120      dense_1[0][0]                    
__________________________________________________________________________________________________
dense_3 (Dense)                 (None, 256)          131328      dense_2[0][0]                    
__________________________________________________________________________________________________
dense_4 (Dense)                 (None, 128)          32896       dense_3[0][0]                    
__________________________________________________________________________________________________
dense_5 (Dense)                 (None, 64)           8256        dense_4[0][0]                    
__________________________________________________________________________________________________
output (Dense)                  (None, 2)            130         dense_5[0][0]                    
==================================================================================================
Total params: 924,610
Trainable params: 924,610
Non-trainable params: 0
__________________________________________________________________________________________________
1

Epoch 1/1

   64/12225 [..............................] - ETA: 19:10 - loss: 0.6887 - acc: 0.5156
…
