…
hbase-depth_num

Sentence length Average : 9

Under 10 : 1858
Over 10, Under 30 : 1572
Over 30, Under 100 : 29
Over 100, Under 150 : 0
Over 150, Under 200 : 0
Over 200, Under 400 : 0
Over 400 : 0

39
Count model parameter.
Get a short summary of each layer dimensions and parameters.
__________________________________________________________________________________________________
Layer (type)                    Output Shape         Param #     Connected to                     
==================================================================================================
input_1 (InputLayer)            (None, 39, 200)      0                                            
__________________________________________________________________________________________________
input_2 (InputLayer)            (None, 39, 200)      0                                            
__________________________________________________________________________________________________
masking_1 (Masking)             (None, 39, 200)      0           input_1[0][0]                    
__________________________________________________________________________________________________
masking_2 (Masking)             (None, 39, 200)      0           input_2[0][0]                    
__________________________________________________________________________________________________
forwards_1 (LSTM)               (None, 64)           67840       masking_1[0][0]                  
__________________________________________________________________________________________________
backwords_1 (LSTM)              (None, 64)           67840       masking_1[0][0]                  
__________________________________________________________________________________________________
forwards_2 (LSTM)               (None, 64)           67840       masking_2[0][0]                  
__________________________________________________________________________________________________
backwards_2 (LSTM)              (None, 64)           67840       masking_2[0][0]                  
__________________________________________________________________________________________________
after_dp_forward_1 (Dropout)    (None, 64)           0           forwards_1[0][0]                 
__________________________________________________________________________________________________
after_dp_backward_1 (Dropout)   (None, 64)           0           backwords_1[0][0]                
__________________________________________________________________________________________________
after_dp_forward_2 (Dropout)    (None, 64)           0           forwards_2[0][0]                 
__________________________________________________________________________________________________
after_dp_backward_2 (Dropout)   (None, 64)           0           backwards_2[0][0]                
__________________________________________________________________________________________________
concatenate_1 (Concatenate)     (None, 128)          0           after_dp_forward_1[0][0]         
                                                                 after_dp_backward_1[0][0]        
__________________________________________________________________________________________________
concatenate_2 (Concatenate)     (None, 128)          0           after_dp_forward_2[0][0]         
                                                                 after_dp_backward_2[0][0]        
__________________________________________________________________________________________________
after_dp_1 (Dropout)            (None, 128)          0           concatenate_1[0][0]              
__________________________________________________________________________________________________
after_dp_2 (Dropout)            (None, 128)          0           concatenate_2[0][0]              
__________________________________________________________________________________________________
concatenate_3 (Concatenate)     (None, 256)          0           after_dp_1[0][0]                 
                                                                 after_dp_2[0][0]                 
__________________________________________________________________________________________________
dense_1 (Dense)                 (None, 256)          65792       concatenate_3[0][0]              
__________________________________________________________________________________________________
dense_2 (Dense)                 (None, 128)          32896       dense_1[0][0]                    
__________________________________________________________________________________________________
dense_3 (Dense)                 (None, 64)           8256        dense_2[0][0]                    
__________________________________________________________________________________________________
output (Dense)                  (None, 2)            130         dense_3[0][0]                    
==================================================================================================
Total params: 378,434
Trainable params: 378,434
Non-trainable params: 0
__________________________________________________________________________________________________
1

Epoch 1/1

  64/3114 [..............................] - ETA: 2:28 - loss: 0.6985 - acc: 0.4219
…
