…
Sentence length Average : 27

Under 10 : 9172
Over 10, Under 30 : 5625
Over 30, Under 100 : 5826
Over 100, Under 150 : 822
Over 150, Under 200 : 163
Over 200, Under 400 : 4
Over 400 : 0

253
Count model parameter.
Get a short summary of each layer dimensions and parameters.
__________________________________________________________________________________________________
Layer (type)                    Output Shape         Param #     Connected to                     
==================================================================================================
input_1 (InputLayer)            (None, 180, 200)     0                                            
__________________________________________________________________________________________________
input_2 (InputLayer)            (None, 253, 200)     0                                            
__________________________________________________________________________________________________
masking_1 (Masking)             (None, 180, 200)     0           input_1[0][0]                    
__________________________________________________________________________________________________
masking_2 (Masking)             (None, 253, 200)     0           input_2[0][0]                    
__________________________________________________________________________________________________
input_3 (InputLayer)            (None, 344, 200)     0                                            
__________________________________________________________________________________________________
forwards_1 (LSTM)               (None, 64)           67840       masking_1[0][0]                  
__________________________________________________________________________________________________
backwords_1 (LSTM)              (None, 64)           67840       masking_1[0][0]                  
__________________________________________________________________________________________________
forwards_2 (LSTM)               (None, 64)           67840       masking_2[0][0]                  
__________________________________________________________________________________________________
backwards_2 (LSTM)              (None, 64)           67840       masking_2[0][0]                  
__________________________________________________________________________________________________
masking_3 (Masking)             (None, 344, 200)     0           input_3[0][0]                    
__________________________________________________________________________________________________
input_4 (InputLayer)            (None, 253, 200)     0                                            
__________________________________________________________________________________________________
after_dp_forward_1 (Dropout)    (None, 64)           0           forwards_1[0][0]                 
__________________________________________________________________________________________________
after_dp_backward_1 (Dropout)   (None, 64)           0           backwords_1[0][0]                
__________________________________________________________________________________________________
after_dp_forward_2 (Dropout)    (None, 64)           0           forwards_2[0][0]                 
__________________________________________________________________________________________________
after_dp_backward_2 (Dropout)   (None, 64)           0           backwards_2[0][0]                
__________________________________________________________________________________________________
forwards_3 (LSTM)               (None, 64)           67840       masking_3[0][0]                  
__________________________________________________________________________________________________
backwards_3 (LSTM)              (None, 64)           67840       masking_3[0][0]                  
__________________________________________________________________________________________________
masking_4 (Masking)             (None, 253, 200)     0           input_4[0][0]                    
__________________________________________________________________________________________________
concatenate_1 (Concatenate)     (None, 128)          0           after_dp_forward_1[0][0]         
                                                                 after_dp_backward_1[0][0]        
__________________________________________________________________________________________________
concatenate_2 (Concatenate)     (None, 128)          0           after_dp_forward_2[0][0]         
                                                                 after_dp_backward_2[0][0]        
__________________________________________________________________________________________________
after_dp_forward_3 (Dropout)    (None, 64)           0           forwards_3[0][0]                 
__________________________________________________________________________________________________
after_dp_backward_3 (Dropout)   (None, 64)           0           backwards_3[0][0]                
__________________________________________________________________________________________________
forwards_4 (LSTM)               (None, 64)           67840       masking_4[0][0]                  
__________________________________________________________________________________________________
backwards_4 (LSTM)              (None, 64)           67840       masking_4[0][0]                  
__________________________________________________________________________________________________
after_dp_1 (Dropout)            (None, 128)          0           concatenate_1[0][0]              
__________________________________________________________________________________________________
after_dp_2 (Dropout)            (None, 128)          0           concatenate_2[0][0]              
__________________________________________________________________________________________________
concatenate_3 (Concatenate)     (None, 128)          0           after_dp_forward_3[0][0]         
                                                                 after_dp_backward_3[0][0]        
__________________________________________________________________________________________________
after_dp_forward_4 (Dropout)    (None, 64)           0           forwards_4[0][0]                 
__________________________________________________________________________________________________/home/2014313303/taeha/JavaAutoException/model.py:139: UserWarning: Update your `Model` call to the Keras 2 API: `Model(inputs=[<tf.Tenso..., outputs=Tensor("ou...)`
  model = Model(input=[input1, input2, input3, input4], output=output)
WARNING:tensorflow:From /home/2014313303/.local/lib/python3.5/site-packages/tensorflow/python/ops/math_ops.py:3066: to_int32 (from tensorflow.python.ops.math_ops) is deprecated and will be removed in a future version.
…
2019-10-14 20:00:47.095432: I tensorflow/core/platform/cpu_feature_guard.cc:141] Your CPU supports instructions that this TensorFlow binary was not compiled to use: AVX2 FMA
2019-10-14 20:00:47.108526: I tensorflow/core/platform/profile_utils/cpu_utils.cc:94] CPU Frequency: 2100005000 Hz
2019-10-14 20:00:47.116616: I tensorflow/compiler/xla/service/service.cc:150] XLA service 0xe1035e0 executing computations on platform Host. Devices:
2019-10-14 20:00:47.116635: I tensorflow/compiler/xla/service/service.cc:158]   StreamExecutor device (0): <undefined>, <undefined>

after_dp_backward_4 (Dropout)   (None, 64)           0           backwards_4[0][0]                
__________________________________________________________________________________________________
concatenate_5 (Concatenate)     (None, 256)          0           after_dp_1[0][0]                 
                                                                 after_dp_2[0][0]                 
__________________________________________________________________________________________________
after_dp_3 (Dropout)            (None, 128)          0           concatenate_3[0][0]              
__________________________________________________________________________________________________
concatenate_4 (Concatenate)     (None, 128)          0           after_dp_forward_4[0][0]         
                                                                 after_dp_backward_4[0][0]        
__________________________________________________________________________________________________
concatenate_6 (Concatenate)     (None, 384)          0           concatenate_5[0][0]              
                                                                 after_dp_3[0][0]                 
__________________________________________________________________________________________________
after_dp_4 (Dropout)            (None, 128)          0           concatenate_4[0][0]              
__________________________________________________________________________________________________
concatenate_7 (Concatenate)     (None, 512)          0           concatenate_6[0][0]              
                                                                 after_dp_4[0][0]                 
__________________________________________________________________________________________________
dense_1 (Dense)                 (None, 384)          196992      concatenate_7[0][0]              
__________________________________________________________________________________________________
dense_2 (Dense)                 (None, 512)          197120      dense_1[0][0]                    
__________________________________________________________________________________________________
dense_3 (Dense)                 (None, 256)          131328      dense_2[0][0]                    
__________________________________________________________________________________________________
output (Dense)                  (None, 2)            514         dense_3[0][0]                    
==================================================================================================
Total params: 1,068,674
Trainable params: 1,068,674
Non-trainable params: 0
__________________________________________________________________________________________________
1

Epoch 1/1

 64/100 [==================>...........] - ETA: 3s - loss: 0.6875 - acc: 0.5312
…
